config/calibration_param.npz (npz, 3016 bytes, 4 tensors)

camera_matrix f8 [3, 3]
00000000: cfcc 56b8 54d2 7240 0000 0000 0000 0000
00000010: bd2d fdfc 3a59 7340 0000 0000 0000 0000
00000020: 6a46 3f70 38dc 7240 55ce 5977 37d1 6e40
00000030: 0000 0000 0000 0000 0000 0000 0000 0000
00000040: 0000 0000 0000 f03f
301.14568361192954 0.0 309.57690142534176 0.0 301.7637789222414 246.538020778086 0.0 0.0
1.0

distortion f8 [1, 5]
00000000: de8c 16c3 cf28 d5bf 6979 b79a 66e5 be3f
00000010: 4d9c 3e4a 97c3 273f b9be dcfc 4a01 5e3f
00000020: 4a45 9ce9 fc73 94bf
-0.33061594058581345 0.12068787839186758 0.0001813051395604691 0.0018313629438572578 -0.019973708876084552

rot_vecs f8 [39, 3, 1]
00000000: f24b 99b3 f9b7 c63f 776a 47ca 15ca ad3f
00000010: cee2 0a56 021c f83f 9ff6 d957 61d3 c93f
00000020: 009f 0e47 d515 e9bf fc6d 8e9b c7dd f33f
00000030: 060e 4962 cd7d ee3f e76a 8cb2 0791 cb3f
00000040: 3f33 8e1c 1326 f73f 816a 83a6 51c2 d13f
00000050: c8e8 2eaf 6074 b53f 424c 3d94 d451 fa3f
00000060: e522 90cd 5bcc a5bf b91b a220 e7ff ed3f
00000070: d0b5 fbae 5b08 f9bf a742 8172 d5c1 e13f
00000080: c44e f165 78ad e93f 5c88 5838 08e3 f53f
00000090: a348 b3c7 0706 d73f fba3 37f7 9638 b83f
000000a0: 0b7a c1ad 6620 f93f d5b5 0afd e74e d43f
000000b0: 8670 d699 3a98 c63f e325 101a 0f31 fa3f
000000c0: 8b65 cd8b bd32 d83f c85b 20d3 c3d2 ce3f
000000d0: 38e2 4a39 6cec f73f e449 4e8b 74ec e13f
000000e0: ac12 8f0a ffc3 ce3f 49c1 86ad d2d2 f83f
000000f0: c20b 3dc6 3214 dfbf 9e4d 0c8b dc04 e93f
00000100: 4d04 2927 d6a0 f6bf 4f59 bcf3 bf8d e33f
00000110: 0cb7 4927 9efd d23f f582 605e ea02 f83f
00000120: eb60 f551 e45d ed3f 78f9 a4bc c5a6 d63f
00000130: 3223 b93d 0c36 f73f 9972 bed2 d224 e13f
00000140: 6f82 3267 496a d43f fc07 442b 82ca f83f
00000150: 6bca 301e 8693 b33f 5210 5e1f d966 c63f
00000160: 4e26 250c e030 f73f da88 2220 09ff d73f
00000170: c5df 584f b25a e7bf 2e08 1a6b 2814 f63f
00000180: 7d33 aa8b b73d e93f 416b 33cb 3f21 dcbf
00000190: b234 3bb7 0cfd f43f ad8c bbaa d16d a7bf
000001a0: bedd ad5f e4ee e33f 43bc 7712 db0e fa3f
000001b0: 1ca0 23db 877c ea3f e0e5 0408 ccbb d9bf
000001c0: 17ee 1b7e 747d f53f 9321 7ef8 432e e53f
000001d0: b734 2464 0d0f ebbf 1823 74c7 ea54 f43f
000001e0: d8cc 8d49 06cc c63f 683d 02eb 444c 78bf
000001f0: a447 2226 4a1b f83f bb6b 87f9 05c1 e33f
00000200: 1eb7 d697 919b d0bf d560 bf11 f7c8 f73f
00000210: 187b 812e 88f4 e53f bf47 6935 1cef d33f
00000220: 7467 a9f7 dc01 f83f 296a 0a21 75b4 ef3f
00000230: 539b 923d 2d78 cb3f 0304 2b25 3381 f63f
00000240: 5c3f cdc2 e61a b2bf 11e8 1348 7dca d8bf
00000250: c8cf 4c68 1c59 f63f 65af fa76 f4a7 d73f
00000260: 0130 cae7 efb1 eabf 95cc ca21 8ebb f33f
00000270: 282c bd69 111a aabf 6b67 8714 9f5c e43f
00000280: 13b9 edeb 9c10 f93f d029 589d 03d5 e53f
00000290: b022 8706 10ca d43f 2787 8bbe 5912 f83f
000002a0: 4f3b 1726 7446 ddbf 4b70 6a02 7ba1 d03f
000002b0: ae0a 28d3 bbfc f9bf ca1a 451f 1f84 ce3f
000002c0: e066 a83a abdb a3bf fc02 e503 35f5 f73f
000002d0: f7f9 cb7c 40e6 c83f 1efd 38c6 67a2 ccbf
000002e0: bb8f 403c b6e8 f73f f546 ea75 d132 e63f
000002f0: 5a17 9b7a 96ac e4bf 314a e90c 70b8 f63f
00000300: e4ce 61c0 90aa e33f 2247 2e52 bdd8 d23f
00000310: a073 de98 bcfd f73f 47b4 d184 fd2b d7bf
00000320: d617 d31d 7863 dc3f f989 bdda e7e0 f8bf
00000330: e6a6 56b0 a9ad e73f 7811 50ed cf99 e5bf
00000340: 7c84 2f1c a0a7 f53f 4f5c 95dd 320a e03f
00000350: 6123 197e 22ec e5bf fdfc 7b4d 5433 f53f
00000360: 9177 4825 72ef d73f 45e7 7c61 11b9 b83f
00000370: 24e9 91cb 3f1f f93f 39f8 4051 9c4f cc3f
00000380: 978d 542b 198a e33f a4a3 97a6 5362 f73f
00000390: fd27 dbfc a8e1 b33f 2d82 4bb8 ea9a 933f
000003a0: cb10 2b58 b284 f83f
0.17748948354218858 0.05818241209245383 1.50683816538201 0.20176331319446647 -0.7839151752313853 1.241645438806585 0.9528567237506997 0.2153634664362791
1.446795569939425 0.27748528729504335 0.08380703236517484 1.6449781218150439 -0.04257475742639886 0.9374881398551828 -1.5645405612261705 0.5549113499092372
0.8024255744043889 1.3679277611741076 0.3597430658529765 0.09461349044399008 1.570410422070952 0.3173160525428476 0.17652065765003416 1.636977292832278
0.37809694912501673 0.24080703553110383 1.4952203977574197 0.5601141663376521 0.24035633102007148 1.5514704492926106 -0.48560780867790865 0.7818434444219979
-1.4142667321869056 0.6110534439529064 0.29672960125650216 1.500711792621755 0.9177114105941916 0.3539289800864007 1.45069526777861 0.535745059594393
0.3189872272287521 1.5494405450885997 0.07646978604388159 0.1750136759911834 1.4494324182909568 0.37494114053892036 -0.7298213529347711 1.379921358457533
0.7887838104085031 -0.43952936977227713 1.3117797048064799 -0.045759727565177634 0.6229116314634024 1.6286268922228977 0.8277014999448542 -0.40208721907728595
1.3431286741387163 0.6618976453183215 -0.8455874400985043 1.2707317153128255 0.1781013354444443 -0.005932110987614571 1.5066625108342828 0.6173124192822493
-0.2594951613235582 1.4865637486710075 0.6861000927272896 0.31146912780706865 1.5004548715864674 0.9907785077405765 0.2146050024650444 1.4065429164768382
-0.07072298293973972 -0.3873589710125325 1.396755607053807 0.3696261560351018 -0.8342208411354478 1.2332898445136256 -0.05098013320692757 0.6363063240962509
1.5665559020959037 0.6822527001507357 0.32483292233932115 1.5044801180997156 -0.45742515296744996 0.2598559878913462 -1.6242025612161046 0.2384070303616766
-0.03878531542814101 1.4973650123721987 0.19452673047631183 -0.22370621851767053 1.4943144181824966 0.6937033942251377 -0.6460678476948758 1.4200287346217346
0.614570976015298 0.2944787313982592 1.4994474383777074 -0.362059955316742 0.4435711184745491 -1.5549086136385297 0.7399490779982585 -0.6750259051337215
1.3534241772652242 0.5012449577142294 -0.6850750410895722 1.3250315691691974 0.37398961678433645 0.0965739119536951 1.5701291992141444 0.22117952315778824
0.6106077047629012 1.4615055568230924 0.07766204999202837 0.019145648478003863 1.5323966449805535

trans_vecs f8 [39, 3, 1]
00000000: da90 ff84 2b85 1040 830a 792e 51df 23c0
00000010: d108 2b93 c42a 3940 3f92 4cb3 d7d4 05c0
00000020: c983 efd1 370a 2bc0 f4e1 4257 6c8f 3340
00000030: b480 9925 e61f 2640 2cf3 f279 7266 f3bf
00000040: 3434 cf08 ed2d 3140 61ac 3d8f 8ae7 2640
00000050: 2e96 0a88 48b9 1dc0 edf3 93dc ea9c 3040
00000060: ead0 6f50 ede3 24c0 00b8 f1c8 3988 1040
00000070: 0ee1 27cf b75b 4240 9bd4 724a a46f 07c0
00000080: 088a 3efd a833 f33f 79a4 a651 8fca 4140
00000090: 5255 ec20 ae1f 1640 80e4 b70e a022 21c0
000000a0: 56a2 6d2c 3822 2c40 2c2c 2eaa a700 2640
000000b0: 7ced a52a 4e1c 25c0 31bb 8823 6d07 3440
000000c0: e2bb 0d5f 0962 d4bf 44d6 2a79 d279 21c0
000000d0: 388e 56fc 957d 3d40 7f17 5492 add8 fd3f
000000e0: 38ec de9e dc30 20c0 dfb4 155d 8fa5 2b40
000000f0: f6c3 3103 061f 2240 65af 0f04 1a8b 0440
00000100: aee3 9a35 2e40 4040 7b22 fdce ec6d 03c0
00000110: 42cb fa4e 8290 20c0 b747 5912 8ce1 3040
00000120: de29 decd bc06 2b40 fcf9 54c4 74ff 27c0
00000130: c300 836e 4ed4 3140 3e61 7b0b b271 2b40
00000140: cb1e a6ee 1812 27c0 f04a 21a2 0d5e 3640
00000150: 858e 6c13 fbe6 f5bf be92 c680 14e3 24c0
00000160: d5f4 3d07 f8d4 4240 99d8 88fa bf11 1940
00000170: 1f50 3980 834b 2dc0 ab60 0977 6e95 3340
00000180: 09cd bc29 0ce3 e1bf 5549 8c9a 8199 21c0
00000190: 7435 7d22 f49c 3040 55e2 9b58 26d9 3040
000001a0: d83e 9fec f017 ff3f 2193 ffe2 3061 4040
000001b0: e3c8 9dbf d4d6 edbf 2152 53eb 7435 26c0
000001c0: 0376 da1b 604d 3140 19da cf3b d115 2b40
000001d0: dc25 0e25 47f9 24c0 a4c2 53cc 6057 2540
000001e0: 153d e8e8 2b3a 0340 165b 5949 c865 25c0
000001f0: 9b3f b5fa 2832 3340 ede7 70e8 272f fc3f
00000200: 511a b272 453a 22c0 740b c8f0 4711 3340
00000210: 38cf 983a f3c1 0dc0 0b5f dbea f8e0 20c0
00000220: 9177 ac59 7692 3140 ff1e c7ca 4089 2840
00000230: d465 795b 5237 0fc0 7505 4080 ed97 3040
00000240: a89a 874c 25e0 2c40 2070 3e98 6ba4 2dc0
00000250: 397e 5acb d24f 3a40 1255 5bf5 ee94 1140
00000260: 61c7 dcad 811a 29c0 3bb5 0491 b55c 3040
00000270: 3762 1325 5ed5 2840 39fc 3b27 1af4 0640
00000280: 50c7 7760 3c66 4040 c08b 97e0 facd 0dc0
00000290: 6210 ab69 5c05 21c0 efe0 4cd1 6e9b 3140
000002a0: 5e73 c1a7 10d2 1ac0 1980 4cc6 8673 2d40
000002b0: 731d b28e 94c3 4640 0d28 a4e6 9ca7 0240
000002c0: 7dd6 388d 08b9 24c0 3a3d 044b f9bf 3340
000002d0: 0a6a 4818 71c1 2640 a118 22b6 1614 29c0
000002e0: 04d7 08d4 12ba 3740 272a db2b 16ac 0140
000002f0: 5729 0916 e13c 23c0 e970 88f3 717e 3040
00000300: 58fb f9e4 0e5d 04c0 abd8 0b8c d094 20c0
00000310: e102 74c9 c0ed 3040 8b25 31a6 65b5 fb3f
00000320: 28fb 6e85 be23 2a40 d6ff f06a 4f54 4040
00000330: 3f3e bddf 77ce 2640 46fb 2da4 3d6d 24c0
00000340: c6b8 c604 d1f9 2c40 f17b 477a 056e 2440
00000350: 50dd 4331 1f9f 21c0 b33f a2ae e1b9 2e40
00000360: 88fe 5f2d 9d88 1540 0d4b ee11 3bf4 20c0
00000370: afc5 bac3 e3a9 2b40 ac69 21ef 0c0e 0140
00000380: ae02 53f4 c65e e43f ff60 5976 d0b5 4040
00000390: d226 b2cc 55d0 1b40 4ed6 e0ed 1f38 26c0
000003a0: 0133 3f70 6fdd 3940
4.130048826311588 -9.936166240954895 25.167061994558768 -2.728927040838499 -13.519957123267789 19.56024690039517 11.062302756298187 -1.2125115169175826
17.179398108088392 11.452229000357137 -7.430940747877271 16.61295870411043 -10.445169938706801 4.133032932046262 36.716546911689974 -2.9295125786107525
1.2001123325686667 35.582498747223276 5.5309376854177845 -8.567627391765427 14.066834820159027 11.001279180656717 -10.555283863787501 20.029009076005597
-0.3184836796053202 -8.737933908919452 29.49056985009358 1.8653999057728183 -8.095433201515434 13.823359402560923 9.060592746567618 2.567920715073273
32.50141019881208 -2.428674332714136 -8.28224417506647 16.881043574139508 13.513159211511205 -11.99893773591338 17.829321772559307 13.722061499415414
-11.535346467760425 22.367395527961833 -1.3688917883636418 -10.443515800704855 37.66381922269071 6.267333902933523 -14.647487647052968 19.583716811932998
-0.558965760725557 -8.799816922783672 16.613100200241618 16.848241365487713 1.9433449976967747 32.75930440406069 -0.9324744932657975 -11.104407648011206
17.30224775393982 13.542611950991203 -10.486870916344678 10.670660386299751 2.4034040637849423 -10.698793689878169 19.19593779492389 1.761512668583687
-9.113811096421303 19.06750397571473 -3.7197022035487883 -8.439399089125365 17.572118382078376 12.268072449499867 -3.902012552873865 16.593467727308468
14.437784568360556 -14.821133382436585 26.31181021651557 4.395442804049951 -12.551770623398342 16.362145484589956 12.41673389302842 2.869190508382897
32.79871755455554 -3.725576166748823 -8.510470678455196 17.607159692067338 -6.705141659910479 14.725637623632837 45.52797111222289 2.3318422335478375
-10.361393368900503 19.74989765981193 11.377815970267893 -12.539235774671683 23.726849796446018 2.2090266634234186 -9.61890477048716 16.4939262588604
-2.5454385651386637 -8.290653587766732 16.928722945044573 1.7317863933443245 13.069812936589713 32.65867363708064 11.403258315897913 -10.213360911000233
14.48792281080058 10.214885541177837 -8.810784854444734 15.363049943261876 5.383412083610558 -8.4770131686578 13.831815830754605 2.1318606073447963
0.6365694782217213 33.420424264566456 6.953452299474252 -11.109618600555361 25.86498166602087
